Loading images...
Downscaling images...
X_train shape:  (4000, 512, 512)
y_train shape:  (4000,)
X_test shape:  (1091, 512, 512)
y_test shape:  (1091,)
Creating model. . .
Model: "sequential"
_________________________________________________________________
 Layer (type)                Output Shape              Param #   
=================================================================
 conv2d (Conv2D)             (None, 128, 128, 8)       2056      
                                                                 
 max_pooling2d (MaxPooling2D  (None, 64, 64, 8)        0         
 )                                                               
                                                                 
 conv2d_1 (Conv2D)           (None, 29, 29, 4)         2052      
                                                                 
 max_pooling2d_1 (MaxPooling  (None, 15, 15, 4)        0         
 2D)                                                             
                                                                 
 flatten (Flatten)           (None, 900)               0         
                                                                 
 dense (Dense)               (None, 100)               90100     
                                                                 
 dense_1 (Dense)             (None, 2)                 202       
                                                                 
=================================================================
Total params: 94,410
Trainable params: 94,410
Non-trainable params: 0
_________________________________________________________________
Compiling model. . .
Fitting model. . .
Epoch 1/15
125/125 [==============================] - 46s 361ms/step - loss: 1.0159 - accuracy: 0.6270 - val_loss: 0.6320 - val_accuracy: 0.6609
…
